models_mp/debug.pth (torch, 7275 bytes, 1 tensors)

embedding.weight f8 [100, 8]
00000000: 0000 0000 0000 f03f 53a3 c336 77a7 27bc
00000010: 21b8 e8a9 fa41 4e3c 199e decb 3014 67bc
00000020: 0000 0000 0000 f03f aefc 185a 5656 2a3c
00000030: 61c3 8e15 0eb0 603c a8ea 2479 1899 69bc
00000040: 0c13 c09e f985 44bc af1c 85dd 31af 6abc
00000050: 67f1 1426 04c1 793c 80d1 05b7 ab1e 61bc
00000060: 6acf b2f6 63ac 5b3c 32af 64ff 6e62 523c
00000070: 1e11 d2aa 653b 64bc 5908 e3bc 5654 773c
00000080: 5c8c 1715 02e7 603c e89a 9d6c 9a5b 683c
00000090: 0000 0000 0000 f03f d591 b775 0c5d 743c
000000a0: 9b91 c9b2 f3dd 67bc 1c77 34e3 b190 613c
000000b0: e793 5f89 296b 69bc a7bb 0860 accd 6a3c
000000c0: 5fee 268b 6613 b2bc 02e1 a93e 8703 803c
000000d0: e6fc b562 9dd1 53bc 5a4d cc74 0795 4a3c
000000e0: 4069 5008 24d5 673c 76c1 71d1 c732 2dbc
000000f0: c0a7 462e 5f75 8a3c 16ff a182 20ba 85bc
00000100: 36c2 b32e 6ef8 6e3c 96fc f703 9a12 85bc
00000110: 8b28 efaf 8551 53bc f7fe 4b30 77c9 6c3c
00000120: cfb8 4e0b bca5 48bc 0458 d794 1c9e 60bc
00000130: f997 abf0 ebbb 8dbc 403d 6b63 e524 7fbc
00000140: ac23 bbcc b2e0 48bc 1e9c 2980 1c87 763c
00000150: c8be 0574 f489 50bc fdbc 9ce8 c97c 4abc
00000160: adb9 b805 5a64 73bc e004 0b9b 9126 d4bb
00000170: 1da5 7518 6cf5 873c 7c11 05c9 38a6 06bc
00000180: 4a99 c92e 219a 433c 12cc d7d8 40a2 653c
00000190: f2d9 4783 7cc6 683c 9348 a840 7f5c 4c3c
000001a0: a3ad 1ba9 5e3e 74bc ec2f e002 d8c7 623c
000001b0: 95d9 92fa cd39 853c b9a9 46fc c56f 533c
000001c0: af61 6cdd 35fc b03c 9bdb df88 aa14 7c3c
000001d0: f7d3 937b ebc8 973c 68c5 5c63 0733 6fbc
000001e0: c466 ab62 e5ee 34bc 586d 9230 76c3 6d3c
000001f0: cca3 81e3 3f96 44bc 3d11 55df a82a 723c
00000200: 081b b7e5 bef9 4a3c 6cde dd4a e427 54bc
00000210: 37bc 8aa7 9e4b 61bc 32ac 12f6 52fa 723c
00000220: 06ac caed 1552 56bc 8e75 147a d8d7 a6bc
00000230: da3a 6fd3 c7c1 71bc b70c 5c89 e50c 703c
00000240: 17e9 905a 5d58 66bc be63 90d0 0899 6a3c
00000250: 51a4 36de d5b9 32bc 1006 1d89 f227 42bc
00000260: f216 e5a5 732e 75bc a5e1 195f 9da4 82bc
00000270: 4134 d633 ae75 52bc bf30 01dc 3be3 343c
00000280: 4078 785a ff4d 6dbc 12ba 9398 1b3b 5cbc
00000290: 99de 1c06 0da8 673c 425c a8d4 6909 6e3c
000002a0: e53a 6787 1319 62bc 70bd ae8f 47ea 77bc
000002b0: 943d 3a8d f9c3 7f3c bcac da5c 05be 193c
000002c0: 40cc dc82 dd95 1e3c 9cc0 66a3 00b2 633c
000002d0: 063b 23a3 1404 4abc 59ba cc4c 8655 5c3c
000002e0: 34a8 43cd 41e5 7e3c 3518 4751 3565 433c
000002f0: 85ae 3be7 847a 703c 18ca f61b 256e 683c
00000300: 3e69 008b 4ffd 443c 1a0a 6ff0 dd29 503c
00000310: 9b27 b2f3 bb41 22bc 3268 e3f2 a160 2e3c
00000320: 6e19 7a55 e6b4 53bc b3c9 38b9 56c8 69bc
00000330: 316d e990 d96f 713c 36f1 bf86 7e00 58bc
00000340: 7af9 93fe 4cce 63bc c0ff 44e5 4e48 603c
00000350: 55c4 1761 464e 70bc c4e6 c620 cbcd 6e3c
00000360: 1b56 b0c7 833c 60bc f175 5c32 d7b9 3d3c
00000370: cda1 2da2 e47c 6d3c 15cd 1de9 de76 76bc
00000380: c301 5aca 12d8 393c aa4b 2b99 a448 693c
00000390: 2f67 f203 7757 7dbc fae5 800c ba87 61bc
000003a0: 1275 b37b f312 65bc 54fd 6eb3 532b 213c
000003b0: 7488 7ce7 76d2 803c 6224 645d b28c 61bc
000003c0: faee 25d9 5a7d 433c 2ba2 edba a12d 70bc
000003d0: c6ea d9d3 dec7 513c d05c 713b 5df8 6abc
000003e0: c9ad dc3a da56 6fbc fd3b 83d6 61c5 623c
000003f0: 37ad 5e5a ccde 243c 47c8 59c6 c5ec 59bc
00000400: d282 3c87 115b 773c 0000 0000 0000 f03f
00000410: 7a28 0063 42a7 4abc bf23 35a5 4415 64bc
00000420: bad8 a2f5 1107 6fbc 81be 6b9b 4730 71bc
00000430: 0d80 9b6b f6d8 5abc 441d 53d8 ceed 273c
00000440: e1fe adeb dba8 493c d435 8004 1ac3 76bc
00000450: 2b20 ec80 dfd1 343c 4a30 cacb b517 57bc
00000460: 1a12 3b8a 5081 67bc d09f c34c 2cb1 75bc
00000470: 9fbf c7ae 152b 603c 6bd9 f6d7 67af 303c
00000480: 8d0f b1dc 4e85 3a3c 5664 93c2 e183 5c3c
00000490: b7d2 9ccb 2888 73bc 64b1 fe01 ca84 70bc
000004a0: b63d 5dc5 3ddc 423c 545c 21f7 1f4e 3c3c
000004b0: bc82 fed1 453a 583c 0ed3 3759 6c47 75bc
000004c0: e6b1 44be 1b18 423c aa64 1e9b 4ade 693c
000004d0: 40f1 47d8 deed 6e3c 02dc 206c 7a7d 57bc
000004e0: 5081 b8c0 ea50 69bc 6c88 b407 3547 58bc
000004f0: 7a39 3b02 fe56 543c 8025 a776 d75e 753c
00000500: 6a12 0bc6 ee72 3b3c a21d 1b78 7a57 5bbc
00000510: aefe 9b12 766c 683c e9bc 9513 3a1c 46bc
00000520: 68e7 23ce 2f95 753c aaad 9abe 9b82 38bc
00000530: 6309 ccbb 20ef 483c 6e4d 7543 f541 59bc
00000540: 15ea d73d 5974 533c dea9 6efe 3fca 613c
00000550: 92ed 0629 bc03 51bc 2beb c0fd 0a2b 70bc
00000560: 8c6a f72e cb95 5dbc 62b3 fc07 8bf7 6cbc
00000570: 9b77 3e29 a740 43bc 1754 f6a7 1a28 62bc
00000580: 0e59 9247 f98a 1f3c 52c8 1e4b be46 57bc
00000590: 6274 b0b5 1ec5 28bc e62e adae 719c 5cbc
000005a0: 7a97 750c 4df6 69bc 2f14 06ed 33ae 6dbc
000005b0: 70c2 43a8 1bb1 463c b5e9 04b4 f7a7 62bc
000005c0: 0779 e68a 6a86 2d3c 26a1 c29b db84 50bc
000005d0: 177d 603b a5c6 62bc 87b6 7af1 a9a6 61bc
000005e0: 65ad fda6 2431 54bc 07cb 866d 8fe4 1a3c
000005f0: 17a3 11e1 14aa 56bc 41ba 80e8 b704 38bc
00000600: fc94 6f5e b889 58bc 18d7 29c2 d7ae 5f3c
00000610: 0000 0000 0000 f03f 6b88 839a 0179 3b3c
00000620: c730 7075 82a7 64bc 48bc b03e 2e93 73bc
00000630: 5704 1f2d 6fee 573c a84f b112 382d 67bc
00000640: 2d12 8ef3 d27b 443c 3021 245e e282 78bc
00000650: e86d e2ac 7380 5f3c 3158 61b2 2b49 543c
00000660: 3aa8 02ed ffc8 65bc ce97 9fc9 df29 413c
00000670: 1211 dfe3 4834 53bc aa46 fcc8 16a2 593c
00000680: 5ddb f137 5dea 203c ee80 a99b 1aaa 603c
00000690: d720 5979 9ca5 5dbc 4e11 97fd f2ab 6dbc
000006a0: 538f 2588 3755 2fbc c1e2 d0c4 93c0 3cbc
000006b0: 8f1d b478 33fe 55bc cab0 aac1 c079 503c
000006c0: 31a6 780f 31ea 71bc 3094 89e9 8882 69bc
000006d0: 2764 8aa4 b4c4 73bc 6a05 0a1a 7a1b 56bc
000006e0: 2972 e4eb 8120 633c f603 36cb a6da 48bc
000006f0: fa09 d76f dff4 34bc 6d68 b19c 94b2 4fbc
00000700: f127 f039 74c0 76bc c4b3 7626 2366 5d3c
00000710: 0384 33ca e28e 70bc 4589 89f5 a8b1 71bc
00000720: d84a ebf6 7413 4ebc e249 a4ad e84e 693c
00000730: 643c 1985 17d8 71bc 09ec 4dfe 3308 76bc
00000740: 3023 9c0f 19f2 76bc ca52 783f e4ce 2fbc
00000750: ca73 93ab b372 523c dc2a 15a6 0079 393c
00000760: b843 26a3 9825 58bc 0299 3e66 a7c9 6cbc
00000770: c9e4 de96 73d4 63bc 463a 7ab3 3d4c 433c
00000780: c146 eb52 b60f 513c e1c9 979f 93c6 583c
00000790: ee6a faae a253 403c 6760 2a7a 4507 623c
000007a0: 4f92 0881 21ec 60bc 728f 8477 23ce 46bc
000007b0: f962 0587 0f2d 67bc 4daf a167 b88f 62bc
000007c0: 7448 7401 117e 58bc 2cae 1017 c9ed 5dbc
000007d0: ee56 4bef 1627 43bc 025f 8aff 951f 413c
000007e0: dacf fe32 6beb 58bc f676 f2d4 5fda 513c
000007f0: b80a b530 cbcd 70bc 2419 433b 5bf0 6cbc
1.0 -6.411473676759e-19 3.280549776560117e-18 -1.0008864212017674e-17 1.0 7.138727306254338e-19 7.237142702822024e-18 -1.1101375756896788e-17
-2.2251449978081794e-18 -1.1572494106345359e-17 2.2338007793332967e-17 -7.424533063841293e-18 6.000712150375123e-18 3.986504310129275e-18 -8.774240045203323e-18 2.0235071009754667e-17
7.330236905643561e-18 1.0563522746424406e-17 1.0 1.7662495920654107e-17 -1.0350661210209247e-17 7.617697422568153e-18 -1.1023561641826265e-17 1.162412678517003e-17
-2.5085188704857487e-16 2.777948430587255e-17 -4.297518886654102e-18 2.8820419383510742e-18 1.033573446532799e-17 -7.914231738188895e-19 4.589815262791513e-17 -3.769043856108939e-17
1.3431283537826347e-17 -3.6555242496329975e-17 -4.189020258154793e-18 1.2484360301021578e-17 -2.6722765250970646e-18 -7.2067454511513e-18 -5.1580387375350735e-17 -2.701322255164636e-17
-2.6972487033989236e-18 1.9539733230024563e-17 -3.586299293560226e-18 -2.871775721019814e-18 -1.6819877636562382e-17 -1.7068272306942685e-20 4.156168578934024e-17 -1.5347765358617626e-19
2.1252605609385695e-18 9.382166045521336e-18 1.0744589859666963e-17 3.0749401202470776e-18 -1.755855175301322e-17 8.144804197337245e-18 3.6820892232985614e-17 4.214643991504067e-18
2.357169586420149e-16 2.4356148306964724e-17 8.252025167777802e-17 -1.3530553190012006e-17 -1.1347903760258784e-18 1.2907870164315559e-17 -2.23203751099795e-18 1.5757047826425528e-17
2.9246970635282917e-18 -4.370598331232681e-18 -7.50067960214134e-18 1.646064221368206e-17 -4.840018817168052e-18 -1.5850617294371546e-16 -1.5401703655060574e-17 1.3921483280370335e-17
-9.69067468004263e-18 1.1534953006521873e-17 -1.0151341365283039e-18 -1.9684822944362526e-18 -1.8371981148942713e-17 -3.2340495383000834e-17 -4.002807063457001e-18 1.1323208067716907e-18
-1.2708878061768428e-17 -6.1215984173252384e-18 1.0259349241939233e-17 1.3026372991662788e-17 -7.848736520803236e-18 -2.0743089917754352e-17 2.7552202365350007e-17 3.4887280413315463e-19
4.1450961644209226e-19 8.541484463938949e-18 -2.820653855833478e-18 6.143974327856865e-18 2.679760519908893e-17 2.1028474979486416e-18 1.4292898846000988e-17 1.059493367257111e-17
2.2756856056122854e-18 3.5049096379858945e-18 -4.948508554141797e-19 8.233830051777169e-19 -4.273196296877932e-18 -1.1181408791890229e-17 1.512411163723618e-17 -5.204589068559162e-18
-8.589423591658758e-18 7.06138873549246e-18 -1.4142993549226013e-17 1.3359053766779627e-17 -7.041409904694555e-18 1.6114464304719233e-18 1.2788322341397724e-17 -1.948470798422065e-17
1.4010080378428874e-18 1.0965083689552372e-17 -2.5449833023243774e-17 -7.602504836619707e-18 -9.139402671686232e-18 4.653733432837918e-19 2.918173833614781e-17 -7.610924317430335e-18
2.11307398272332e-18 -1.4032394219542485e-17 3.855584217451351e-18 -1.1696447894624065e-17 -1.3591240730284017e-17 8.140634060290795e-18 5.65690768951875e-19 -5.621565019925098e-18
2.0257871951216982e-17 1.0 -2.889762727175399e-18 -8.70964702043771e-18 -1.345608424618999e-17 -1.490872758392249e-17 -5.8216257500476445e-18 6.485951493360127e-19
2.7820200269355934e-18 -1.9742988274425065e-17 1.128644521826772e-18 -5.00741326390508e-18 -1.0193727456031293e-17 -1.8814882128177672e-17 7.011882221678034e-18 9.045053268520158e-19
1.4376919029083e-18 6.183240459393059e-18 -1.6941198867202236e-17 -1.4327694754838115e-17 2.0448397261430092e-18 1.534426625071269e-18 5.253529354831429e-18 -1.8456587835341e-17
1.9617742031743627e-18 1.1218598054083608e-17 1.3413394350325945e-17 -5.0936141735052935e-18 -1.0979100460236364e-17 -5.2644852290627994e-18 4.41049396774771e-18 1.8535932521443255e-17
1.4880108807502186e-18 -5.928788814304418e-18 1.059208131200657e-17 -2.397199320245265e-18 1.8720060831341805e-17 -1.3287000066387423e-18 2.7033598043310887e-18 -5.476879512876318e-18
4.2185193529318965e-18 7.715199559541169e-18 -3.689451055375473e-18 -1.4023622942393247e-17 -6.415252787241601e-18 -1.2562418639084443e-17 -2.0873657268923728e-18 -7.874194672965029e-18
4.2748555081646844e-19 -5.047251927913061e-18 -6.7139219106148455e-19 -6.204045448968177e-18 -1.125927180022795e-17 -1.2871856283086488e-17 2.460252950438238e-18 -8.090803808555997e-18
8.002784418964777e-19 -3.581981924362102e-18 -8.142774102274021e-18 -7.654914301672864e-18 -4.378434576672832e-18 3.6446558573789224e-19 -4.91455424336574e-18 -1.3020417652391571e-18
-5.320823967190074e-18 6.870151087062794e-18 1.0 1.4892970059515017e-18 -8.957389687811491e-18 -1.6978540440712353e-17 5.1892916862491415e-18 -1.0051264012226898e-17
2.220845861021491e-18 -2.1260134796371334e-17 6.830856424220108e-18 4.398786675667661e-18 -9.44780500280428e-18 1.8608780941580184e-18 -4.16425514188678e-18 5.5583055894527224e-18
4.584951369834977e-19 7.227061183312686e-18 -6.428650765803292e-18 -1.2868038445609372e-17 -8.492793761645743e-19 -1.5586628544446233e-18 -4.768965797943827e-18 3.572575716366032e-18
-1.553862169387986e-17 -1.106315630044837e-17 -1.7146337639140355e-17 -4.793763449199074e-18 8.295006367581032e-18 -2.694687742399592e-18 -1.1360560049191332e-18 -3.436658525076789e-18
-1.9734017781783134e-17 6.3748862634530406e-18 -1.436190406050863e-17 -1.5347085027923793e-17 -3.2608468320348954e-18 1.097569860037771e-17 -1.5477297295731187e-17 -1.9109751416665308e-17
-1.9902217807945593e-17 -8.62162183199232e-19 4.000284055821032e-18 1.380875998903422e-18 -5.23601568144875e-18 -1.2484679332891203e-17 -8.599843386604838e-18 2.0922734555987004e-18
3.69959613984905e-18 5.372371396377154e-18 1.7701444805764043e-18 7.818573864760347e-18 -7.338915166130319e-18 -2.4725478480439504e-18 -1.0050995704005152e-17 -8.049727353485626e-18
-5.310952846361606e-18 -6.489784760237863e-18 -2.0765392125440077e-18 1.856520855122195e-18 -5.4035778629369225e-18 3.8712576498620404e-18 -1.4575044025295507e-17 -1.2550243865895094e-17
