models_mp/track_200_constraints.pth (torch, 7317 bytes, 1 tensors)

embedding.weight f8 [100, 8]
00000000: 0000 0000 0000 f03f 0000 0000 0000 f03f
00000010: 7a77 0f67 c684 b1bb 0a5d 638b 9e1e d63b
00000020: 4a08 237c 8718 dc3b 5aa8 7bca f191 c8bb
00000030: 969d c702 f824 c83b 7b1b ef89 6080 c43b
00000040: 6c0e 1fbb 303d bfbb c53e 6725 0e33 d03b
00000050: 4696 1b4a c7bd d0bb 5f59 79bb cb32 d03b
00000060: 818f d03b f606 683b db99 562d 2550 cfbb
00000070: dbbd 592d 2550 afbb d65d 0fbc 20db df3b
00000080: 0000 0000 0000 f03f 987c dec9 f942 a83b
00000090: 7409 a7ee b2cd d83b 2f35 dbd8 c248 d1bb
000000a0: 9ab5 da01 4546 c03b 0000 0000 0000 f03f
000000b0: 0000 0000 0000 f03f 04ea 3632 d404 143c
000000c0: e0f9 a68a 5c32 fabb 11f1 94f1 a6ce 063c
000000d0: da44 6e56 554b 083c 749c 907a 0ab2 f9bb
000000e0: e048 e69a 314c f0bb 52f5 3cff 5eca 043c
000000f0: d871 8ddb 84d4 093c d0d3 87df 1b67 04bc
00000100: 52bf 475e 8ab9 1f3c b867 e42a 1acb 04bc
00000110: f882 1a36 7a60 03bc 35d3 967e 0fd3 f2bb
00000120: 2361 efc8 141a 0cbc 195c 5690 3914 02bc
00000130: 76f5 64db c6c0 f9bb 0080 cdb1 116f f8bb
00000140: 74d3 8076 9277 f5bb 01c8 f290 9813 f8bb
00000150: 7b7a b767 cd22 f4bb 0000 0000 0000 f03f
00000160: 947d 73ca f191 d8bb 20f7 a596 8a2d dfbb
00000170: f26c cc78 0f2a d3bb 2c07 9384 249f e2bb
00000180: 38a3 31c4 dbe8 ab3b 810a ed51 d614 c5bb
00000190: 002c d1b5 a7a2 8abb 5487 4df6 b95e c2bb
000001a0: 84b6 5fc6 bb24 bd3b 98bd cad3 2f2e c03b
000001b0: e20e ae49 2cc8 cf3b b361 24e0 9f3f e03b
000001c0: 3500 30ec 9329 d03b acf2 8366 ce35 b13b
000001d0: 551d 1f4a c7bd d0bb e84b ea96 09ad a3bb
000001e0: 7d69 68ca f191 c8bb a65a ce6d ddb6 f4bb
000001f0: 5986 1a14 032c e43b 9958 ffca e9e0 c8bb
00000200: 07cd 958a 58cf d4bb 6645 2e2f c47e d2bb
00000210: e637 5cd4 277d d0bb 970e bb07 1169 f1bb
00000220: 5afb c92c 2d01 cf3b 98f4 5089 edbc a93b
00000230: 1b67 552d 2550 cfbb 476b b1c8 9b60 bebb
00000240: c149 ae57 b759 e2bb 46a7 ae9c e799 ecbb
00000250: 602f 1fbc 20db cf3b 347c 7ebd c342 ddbb
00000260: 0c65 911c 9154 9abb e6ab d446 e68d e6bb
00000270: ca6b eb74 7010 c8bb 7852 2563 276b d6bb
00000280: 7eb5 0474 f836 d2bb 9e9e af67 c699 dcbb
00000290: 0507 6635 1d73 dabb 2f15 6a79 0bdc d8bb
000002a0: 7c10 8b72 29f4 f2bb 62be 2fa0 408e d1bb
000002b0: 880c be94 2971 b2bb ac4f eb1c 5c20 b03b
000002c0: ca22 5056 79bb e0bb 6f04 62de bac1 d73b
000002d0: d290 9db7 ac64 e0bb 7bc5 8c46 6a66 f6bb
000002e0: b299 09a3 c02d aabb a407 13d4 ab55 f0bb
000002f0: 26d8 743b 7adf d73b f886 3e45 24ed c9bb
00000300: 649e d191 6fd7 d8bb 5c59 9267 bed3 c1bb
00000310: d4e0 b48d ad34 ac3b 638d 8b46 6a66 f63b
00000320: 3068 0c8d 58e4 973b 550b 6525 0e33 e03b
00000330: f0c3 fdbb c381 c0bb 9cf5 0252 da77 dabb
00000340: fa1c 729b 299b e0bb 2c68 76f6 b95e b2bb
00000350: ec75 6b57 ce8d cb3b 3a97 46d8 caf9 d03b
00000360: 7d20 c385 bf2a e13b c09e aa22 00be 73bb
00000370: a755 72ca f191 d8bb 3005 dad8 c248 b1bb
00000380: 869d 8462 2bb9 e0bb afd0 9884 c560 bdbb
00000390: ce76 bf31 bcb8 eabb a321 0e1f 359f d2bb
000003a0: d47f 13d4 ab55 e0bb da06 dbd8 c248 c1bb
000003b0: 0c30 ae4a bf0c d1bb f0ba eed9 b2e6 b1bb
000003c0: 2ca3 93ce 27ff b3bb 8db3 f29f c466 d1bb
000003d0: d693 7911 4503 d1bb ba40 e951 d614 d5bb
000003e0: 42ba 6425 0e33 e0bb 3edc cd01 4546 b0bb
000003f0: 915b a6c2 e23a d4bb a464 1f4a c7bd c0bb
00000400: d88e 31ff c914 8e3b 16da d6d8 c248 c1bb
00000410: b4ad f713 4518 e43b 1e92 8267 bed3 c1bb
00000420: 1ecc f1ba 303d bf3b f2ad bfcd d2c1 e2bb
00000430: 2a55 9257 f945 e23b 4400 603b 767c e2bb
00000440: 085a 275f 808b c0bb df96 1903 744c d8bb
00000450: 82d2 8b46 6a66 e6bb 5477 b374 b729 af3b
00000460: 4056 21b2 2087 b3bb 002a 48c4 dbe8 9b3b
00000470: 6ebc 47b9 a49e dcbb e8b3 1e25 920b d03b
00000480: 60a2 a351 5aed d4bb 5251 1fae b0b4 e8bb
00000490: 488a 0951 ce0f ac3b 1d6b 0087 fb77 eabb
000004a0: 5c50 d35c 4ed7 d8bb c00a a0cf 179d b4bb
000004b0: 2d0a 1803 744c d8bb ffa7 dcd8 c248 c1bb
000004c0: a1ee 8fd8 4621 d1bb 89eb 1fcf 1060 f4bb
000004d0: 77d5 d1d8 c248 c1bb 20a3 34fd b88e 82bb
000004e0: dc92 6bb1 91e4 e2bb e69f 0374 f836 f2bb
000004f0: 70f9 91d5 715f 613b da7c 343b feb7 e7bb
00000500: 649a 47b9 a49e ecbb 2575 ae18 5c0b d5bb
00000510: a863 0349 d71f c03b 0354 1e4a c7bd c0bb
00000520: b65c cdb2 cf82 f4bb e250 b807 1169 e1bb
00000530: 02aa 61c9 01f4 c73b bb5b 2ec3 da89 d4bb
00000540: 4a11 a98d ad34 ac3b 87c0 038a 6080 d4bb
00000550: 2e8e f4c9 f942 c83b 4040 c182 dd06 8abb
00000560: 14ce 4aa3 3c55 eabb 9f59 0f03 744c d8bb
00000570: d7af 7557 3b32 e23b 60a1 deb5 3013 d9bb
00000580: 0cae 8846 6a66 f63b 99b3 342a 2989 f63b
00000590: c309 71eb 513d f4bb 7212 a7c2 e23a e43b
000005a0: 3110 038a 6080 e4bb 4f2f 038a 6080 e4bb
000005b0: 091f 6106 557c e23b de9b 49d8 caf9 e0bb
000005c0: 7e65 251c d4f9 edbb 7273 70f6 c124 edbb
000005d0: 8d36 a2ba 295f 00bc 05e7 c9c8 9b60 be3b
000005e0: dc16 a98d ad34 bcbb eaff a558 f5cd d83b
000005f0: 34f8 a326 af3e cbb9 a0b6 3cb0 404b b2bb
00000600: 4dbb 8743 055e ecbb a0d5 8b46 6a66 06bc
00000610: 2c5d 75ca f191 f83b f2f5 b53b f606 e8bb
00000620: 4594 0fbc 20db df3b 949e 0474 f836 f23b
00000630: 790c e9c9 f942 d8bb 5ead a158 f5cd b8bb
00000640: ab15 244a c7bd f0bb 33fc eac8 9b60 bebb
00000650: a594 bcca 6db9 083c f2a5 10cb e9e0 f83b
00000660: f187 5b95 cc2e e33b ef89 e1d8 c248 d1bb
00000670: 44ae 2e9b ad73 f0bb 18f9 79cd 569a d2bb
00000680: 4812 e5c9 f942 d83b e351 9a4c c7d2 e33b
00000690: 0000 0000 0000 f03f 6ef8 9fec 8b78 e03b
000006a0: 0ee6 b657 b759 02bc 0000 0000 0000 f03f
000006b0: ec76 3c3b feb7 d73b 5b79 a425 8a5a e0bb
000006c0: b8d9 630a 8b54 ec3b c141 92c2 e23a d4bb
000006d0: 702d 058a 6080 e43b 6706 5f51 dec5 e4bb
000006e0: 5354 158a 6080 f43b 8cc3 f5d8 c248 c13b
000006f0: 773d a23c 3372 b23b 9502 cdd3 2f2e 00bc
00000700: 60fe 8502 7cfd e73b 7230 bbb8 ac4f ec3b
00000710: 98e5 028a 6080 e4bb d5d6 8c4c c7d2 e3bb
00000720: 88ad fad6 715f 913b 0000 0000 0000 f03f
00000730: cc29 e78d ad34 bc3b b012 7db7 ee50 f03b
00000740: 627a 2646 4221 eabb a0c1 3e85 4c3f e8bb
00000750: 0000 0000 0000 f03f 9e14 6df6 c124 ddbb
00000760: 7263 b79b a5c2 d0bb b6d5 a751 5aed d4bb
00000770: ae30 c1b7 6a78 e0bb 7af5 6df6 c124 ddbb
00000780: 5279 dfd8 c248 c1bb 543c f5d9 b2e6 b1bb
00000790: 0f11 6280 a6bc ecbb 9a9f 2b9b ad73 d0bb
000007a0: 05f3 53a6 a15d e4bb 45c1 895c d2af e8bb
000007b0: f2ae b918 5c0b d5bb 07cd 4043 8936 ecbb
000007c0: 7451 37f2 a280 dcbb 86a0 003c 722e d8bb
000007d0: 78c1 ed10 4db4 d03b c2a4 259b ad73 e03b
000007e0: a8a3 14d4 ab55 e0bb f09b 383a 5336 a13b
000007f0: 6024 a3d7 715f 71bb c5c2 05bc 20db cfbb
1.0 1.0 -3.709718939998137e-21 1.8736035652540806e-20 2.3798082963339167e-20 -1.0405840282079529e-20 1.0225555103762956e-20 8.682711576760006e-21
-6.61512081675444e-21 1.3721454835172767e-20 -1.4180451455361876e-20 1.3720596457104058e-20 1.5899863721995373e-22 -1.3261599831845177e-20 -3.3153999580387166e-21 2.6983054666390968e-20
1.0 2.5687993571465463e-21 2.1009391481346887e-20 -1.464030645941444e-20 6.89251481265074e-21 1.0 1.0 2.7130618249361176e-19
-8.87579552936108e-20 1.5454783488653022e-19 1.6462438304605842e-19 -8.705964684964577e-20 -5.521852477148055e-20 1.4088198950228332e-19 1.750319198830829e-19 -1.3825454087751075e-19
4.299507741808839e-19 -1.4090134248084801e-19 -1.3130274318101222e-19 -6.377973499659024e-20 -1.9042574356316964e-19 -1.2250809195590612e-19 -8.725467423361354e-20 -8.27851504906841e-20
-7.273329141028775e-20 -8.157451333053727e-20 -6.822324123059453e-20 1.0 -2.0811680562548385e-20 -2.6408705089134254e-20 -1.623279230996427e-20 -3.1546303805097567e-20
2.9550441997792974e-21 -8.928318181360403e-21 -7.0503241466792675e-22 -7.780008232485711e-21 6.171374103064023e-21 6.852673271151052e-21 1.3460169130740963e-20 2.752608602710286e-20
1.3690096631418563e-20 3.6443975141217836e-21 -1.4180451456057567e-20 -2.0832698654079464e-21 -1.040584028018177e-20 -7.018283333146871e-20 3.417256504391921e-20 -1.0536483133060108e-20
-1.7626708862384705e-20 -1.5666027701949042e-20 -1.396663224698272e-20 -5.898878428298304e-20 1.3130956979983964e-20 2.7251166984876636e-21 -1.3261599831727021e-20 -6.432659808326181e-21
-3.108687798992018e-20 -4.845230114691577e-20 1.349152733475531e-20 -2.4784861035023892e-20 -1.3939165523636085e-21 -3.8208461922879573e-20 -1.0191591881155273e-20 -1.8989267210536268e-20
-1.542847524519454e-20 -2.4225721382828894e-20 -2.2403737222538816e-20 -2.1056857974677638e-20 -6.421782809585543e-20 -1.487023395921723e-20 -3.905254027400583e-21 3.414899201662959e-21
-2.834565300059704e-20 2.0122756440861326e-20 -2.777126343839906e-20 -7.589435243705962e-20 -2.7717798639999145e-21 -5.534395757821495e-20 2.0221182708071147e-20 -1.0980229843546709e-20
-2.104160806424291e-20 -7.550080730897364e-21 2.986402402184687e-21 7.58943524360979e-20 1.264830687497949e-21 2.744290966947742e-20 -6.990941079604375e-21 -2.241941632467423e-20
-2.8131833792873275e-20 -3.890004118258311e-21 1.1669543171256533e-20 1.4379020754114712e-20 2.908200363327725e-20 -2.612857033372222e-22 -2.0811680562320412e-20 -3.660076614795062e-21
-2.833040309044293e-20 -6.221036421338123e-21 -4.5268187828255285e-20 -1.5773366496992864e-20 -2.767197878929265e-20 -7.320153229689373e-21 -1.444173716026395e-20 -3.79071946643301e-21
-4.234466178820021e-21 -1.4739591109183662e-20 -1.4410378957029247e-20 -1.7856636361973717e-20 -2.7442909669352506e-20 -3.4462574056918624e-21 -1.7135495656041654e-20 -7.09022572805625e-21
7.962429254602536e-22 -7.3201532292777e-21 3.404192219217969e-20 -7.550080729341505e-21 6.615120814522999e-21 -3.177580211502094e-20 3.0956235140898614e-20 -3.1316805492659494e-20
-7.007049370954225e-21 -2.0581753061687482e-20 -3.794717621815545e-20 3.299506262100355e-21 -4.135181528048649e-21 1.4775221001673091e-21 -2.424182967483415e-20 1.35908119828712e-20
-1.7725993510248783e-20 -4.1853288625514537e-20 2.9711524923508305e-21 -4.483969102998529e-20 -2.104117887375769e-20 -4.3651090300484836e-21 -2.058175306138188e-20 -7.320153229850051e-21
-1.450966360657385e-20 -6.903405421033561e-20 -7.320153228782881e-21 -4.912132051995391e-22 -3.2005729615465165e-20 -6.171390097992276e-20 1.149637500734572e-22 -4.018107971476789e-20
-4.8483659349615854e-20 -1.782527815751923e-20 6.828940024061122e-21 -7.090225727951238e-21 -6.949390921244513e-20 -2.949439214041037e-20 1.0144554578282632e-20 -1.739678135885324e-20
2.986402401893531e-21 -1.7365423157591465e-20 1.0275197430762326e-20 -6.889241225875178e-22 -4.460976352570751e-20 -2.0581753059668145e-20 3.0825592291604746e-20 -2.1239318975441778e-20
7.589435243383196e-20 7.635420743482098e-20 -6.857419920709025e-20 3.427099131236508e-20 -3.473084631491124e-20 -3.4730846314959185e-20 3.1315947111462256e-20 -2.8758041509419865e-20
-5.0781137634541e-20 -4.937115277424042e-20 -1.1093916099207984e-19 6.4326598095333045e-21 -5.972804803788135e-21 2.10102498627814e-20 -2.6865506242743835e-30 -3.873895828164677e-21
-4.8056020932659224e-20 -1.51788704872641e-19 8.32467222516714e-20 -4.070365111781637e-20 2.6983054666432902e-20 6.171390098070755e-20 -2.0550394859255363e-20 -5.252562465482237e-21
-5.672180582815096e-20 -6.432659811164409e-21 1.6753858731966368e-19 8.429186507812984e-20 3.249694281874576e-20 -1.464030646066302e-20 -5.574109618057134e-20 -1.5757258205768203e-20
2.0550394858470977e-20 3.3582067189094156e-20 1.0 2.790276465898173e-20 -1.2434751197326578e-19 1.0 2.00905398589571e-20 -2.7704195370486245e-20
4.7993304532788253e-20 -1.7135495652077464e-20 3.473084631574516e-20 -3.5190701317445795e-20 6.946169264423193e-20 7.320153232325854e-21 3.906112407668577e-21 -1.0964277234199745e-19
4.0640934713178355e-20 4.796108794225198e-20 -3.473084631484561e-20 -3.3582067183776964e-20 9.197100050336715e-22 1.0 5.972804806848618e-21 5.528124117517571e-20
-4.4265802082321636e-20 -4.107645850520902e-20 1.0 -2.468557638645551e-20 -1.419655974809387e-20 -1.7725993511077192e-20 -2.7901906290445524e-20 -2.4685576386628736e-20
-7.320153230127895e-21 -3.790719466753753e-21 -4.868222865032573e-20 -1.3935274044539893e-20 -3.4500918813197046e-20 -4.1821072042511305e-20 -1.7825278159733126e-20 -4.7794735228691786e-20
-2.414254502646037e-20 -2.0482468411628614e-20 1.4149093253464082e-20 2.787054808672115e-20 -2.7671978789742285e-20 1.822413350613416e-21 -2.2992750177753836e-22 -1.3491527332248286e-20
