models_mp/track_200_morerandom.pth (torch, 13714 bytes, 1 tensors)

embedding.weight f8 [200, 8]
0.9971018840896044 0.0026400723295475544 0.002646230290105521 0.0016534280208760441 0.001888510408219032 0.0021408816579205872 0.0025954902359450116 0.9985883465986863
0.002917914850501262 0.001937077761737302 0.0019932166417765637 0.9977087005693264 1.0025124554054008 0.00618974432350335 -0.0027737706744308402 -0.002474468490541381
0.0067418204955414195 -0.002764415664331201 0.006786826856357681 0.007350607907649628 0.005196962753430273 0.005678010437099296 -0.0020683204471881023 0.0062919147624259045
0.006045412370943317 0.005263214965159468 0.004977352408697338 -0.0035912508833733283 0.006097574836574473 -0.0034664352750322465 0.006457340481294939 0.004944013876795581
0.004833359383818415 -0.003575098030625343 -0.0034656752297112427 0.0038896552856779493 -0.002522668678011652 0.00590523605593748 0.004938403837785541 0.006034831305636643
-0.003869280775274689 -0.0026021215415032305 -0.0025490349127674766 -0.003413622186670113 0.004992912576763013 -0.003429710804874864 -0.0019481301701635935 -0.002855055520046464
-0.0038126003023102495 0.0056571896096707505 0.0042053847520855695 0.00510993195483665 -0.002030463488850415 0.006242746609459822 -0.0040520523582243595 -0.003189964756623955
-0.0028411233408295305 -0.003697023449424812 -0.0014778232246022743 0.0049693472879080635 -0.003446027010286866 -0.0025560666116757388 0.006447059111120879 -0.0020104805317569083
-0.002715827915058935 -0.0016547548807895013 -0.0016853927751960807 -0.0018035810172626994 -0.0005260208560917717 0.003454612508441028 -0.0017074204501451482 0.007602829428293111
0.0068216996347844104 0.006010154039881089 0.00589566939114353 -0.001612576566484627 -0.0035943117179674886 0.005999698469978482 0.006419149680923556 -0.0036940864961865815
0.005556003409728587 0.0070357665921023 -0.0022243604904108954 0.006077819192056674 0.004144865910658524 -0.002851041113372676 0.0055650354935641595 0.005050465816552048
-0.0030745731832787517 0.005703465812333483 -4.4222267148075875e-05 0.00612364540123524 -0.0032319335567480255 0.006367296207656464 0.005003280506283367 0.004046440213176178
0.004963481773833718 0.0054503058013050725 -0.0020788291707192885 -0.004522075049383549 -0.0030979206270469965 -0.003313597663666808 -0.002657134098753149 0.005538748428497477
-0.0029882298888287057 -0.0001501223873581466 0.008075719261580525 -0.0011440988936079546 1.0048696947137055 -0.0025961676654902687 -0.0015565820563445915 0.0075486429928725614
0.00619272517757016 -0.0008659869492039891 0.006709090517787008 0.006643704552617501 0.00716887291604887 0.006406843929777021 0.005696086892726743 0.006412285633055335
0.006574672983460976 0.005599249886776594 0.004329727291857689 0.005995807445771476 0.005205689718635201 0.0051784861092620685 -0.004668868653125895 0.004362613220267097
0.004118631208530791 0.004396927916576911 -0.00507518817876539 0.004134885780759213 -0.00399640860462927 -0.005302800598368682 0.00577749575981092 0.005579725264458244
0.004913982523697704 -0.004492815899973739 0.003996299277586595 -0.00493661132578832 -0.00327735129445827 -0.0026900559530071556 0.005283394573900831 -0.0037861030713790067
0.006781975292092529 0.0028955312763536624 0.0043594593908150405 -0.00420105754995668 0.0044671063337925485 0.004305421696351189 0.0035560427070952107 0.0032518406204670998
-0.004036746358666903 0.0034231101974066406 -0.004617829076720428 0.0032083973476733463 -0.004426194985340511 -0.005098591369091039 -0.005451951897779468 -0.00371817699794102
0.004981146150135621 -0.0028521835605003717 0.006518578392492363 0.99937919309574 0.005974835918289169 -0.003374260819098212 -0.0018808250381072463 -0.004419184606694499
-0.0027021379041884705 0.005034472948009448 0.004302162245831808 0.00421027324746592 -0.0026397303898276123 0.005435902165226563 0.00502336325909641 0.005612365538097746
-0.0034470665743960784 0.004972366091359247 -0.0034374130699390284 0.006253748149563272 -0.0032664143854205688 -0.002987422308478513 -0.002963990726536011 -0.003153032675629792
-0.0028508788374444066 0.005358007297324945 0.006342494446408359 -0.002594001633104569 0.004292670104404976 -0.003832678648467034 -0.0028644456154855707 -0.0033922097603114633
-0.0029719314082270465 0.005746261318299742 0.004756957332109372 0.0064674302575291834 -0.0031176357440431193 0.005573775895293574 -0.003653502980890597 -0.0031255149091730335
-0.00167288990010237 -0.003307341296160344 -0.003223114451726617 -0.0024009041803891916 -0.0013307881283993635 0.0056387650636026045 0.005388801591175171 -0.0025818766567686276
0.006756477139265546 -0.0024998603166330874 0.006244267097194787 0.0043782649383274416 -0.0032195818512558093 -0.0020806933521348757 -0.0024188404270642457 -0.0014078467001641913
0.006608660458843781 -0.001633768934717323 0.0073582871203418145 -0.0022786411996382097 0.007611399990514634 0.006144434762253989 -0.0027987896551422728 -0.0017263236709212904
-0.0020945825627444715 0.00776756030694951 0.007332669888264256 0.0059165506146940305 0.0031372069284673967 0.004226168860998379 0.006204404231685737 0.004571667481819356
0.0032310388821056866 -0.005607715252833679 0.0028955402625998896 -0.0036308450043329213 0.004506224476876942 0.0020478346962087626 0.00012991468237444364 0.9941826432439472
0.009856468609430338 0.005015872081115538 0.009703702306943934 0.00747730308122018 0.009737464070232774 0.010410272335732284 0.007505186831319637 0.0074567518724075075
0.009234567634754215 0.010421768433193243 0.006095589252747719 0.006524497866487067 0.009216862239739757 0.009176185636630118 0.010948744653292835 0.008204538046375297
00000000: 143c de35 42e8 ef3f 0c3b 100a a2a0 653f
00000010: 7dcf b711 8cad 653f 2835 a9d1 fa16 5b3f
00000020: 25d2 409c fcf0 5e3f f96e 9216 c189 613f
00000030: 6e6b c635 2343 653f b7db 598c 6ff4 ef3f
00000040: a490 5f9b 4fe7 673f 27ef bb68 b1bc 5f3f
00000050: 35eb 4909 1454 603f 4028 fccb 3aed ef3f
00000060: 1cc8 1c80 4a0a f03f 5470 0ad7 6a5a 793f
00000070: e243 aaca 04b9 66bf 654c bd27 5645 64bf
00000080: 1c9f b3a8 4f9d 7b3f 5106 de5b 66a5 66bf
00000090: 8748 44f6 80cc 7b3f 7ced 1ac9 ab1b 7e3f
000000a0: ed3e 0811 6949 753f 2d96 2352 d341 773f
000000b0: 3bce b415 95f1 60bf 3a34 2402 8dc5 793f
000000c0: 4fd9 c806 13c3 783f 00d7 5a82 e18e 753f
000000d0: f96c 0edd 2163 743f 2cf4 1023 666b 6dbf
000000e0: 82c4 2048 c5f9 783f 5696 7a44 a465 6cbf
000000f0: 4e14 fb22 0373 7a3f 24c3 969e 2c40 743f
00000100: 4ea8 bb07 25cc 733f 9492 e323 8649 6dbf
00000110: 6c35 a538 0c64 6cbf c995 d4c7 32dd 6f3f
00000120: ff00 106f 6baa 64bf da3e c4bb 1630 783f
00000130: fdc7 a4af 4a3a 743f fd6c 83b1 fab7 783f
00000140: d46d 714c 78b2 6fbf 619d 785d 0b51 65bf
00000150: fc3b c6b2 b6e1 64bf 5b7e e274 e2f6 6bbf
00000160: 5eeb a9c3 7273 743f 01ce bbf7 9f18 6cbf
00000170: ec07 a1d7 0ceb 5fbf aa96 c742 7c63 67bf
00000180: 297a 8e33 9a3b 6fbf 6fdd c545 fe2b 773f
00000190: 230a a35f aa39 713f edca 17ea 26ee 743f
000001a0: 4180 f8c8 30a2 60bf afc3 6588 fe91 793f
000001b0: f798 c385 e298 70bf 5151 c349 d721 6abf
000001c0: fc02 a67a 4446 67bf 23b3 d959 3849 6ebf
000001d0: 12d9 cf9a 7036 58bf 5731 5801 bd5a 743f
000001e0: 3019 eea9 d73a 6cbf 0c0a 1dd0 75f0 64bf
000001f0: 8d2f 9a40 3b68 7a3f 19b0 4284 4878 60bf
00000200: 9fab 7402 813f 66bf 6e04 2386 8b1c 5bbf
00000210: fba7 6cb6 0c9d 5bbf 2c73 075f c48c 5dbf
00000220: 19e0 dc2f 953c 41bf f0b8 cff7 d84c 6c3f
00000230: d1f9 9bbf 70f9 5bbf 4c7e 06fc 2424 7f3f
00000240: 8540 5a0d 12f1 7b3f c12f b970 1a9e 783f
00000250: a45d 91b3 0e26 783f 3dda 61e7 a26b 5abf
00000260: 9437 f868 d171 6dbf 6d42 6ecb 2393 783f
00000270: c4c2 295f f74a 7a3f 8a28 1296 0f43 6ebf
00000280: df5a 0f4f e4c1 763f b459 a536 89d1 7c3f
00000290: 5350 f271 d238 62bf b0fb 922a 0ee5 783f
000002a0: 6676 85f8 34fa 703f 4c76 ed0a 115b 67bf
000002b0: 228f 22d7 5ccb 763f 3bbf 2f18 ccaf 743f
000002c0: 03d3 aee8 d82f 69bf 7089 3472 845c 773f
000002d0: cac6 7c87 692f 07bf 1490 b08b 1b15 793f
000002e0: 3801 bb1d db79 6abf 39ff 9c0f 9814 7a3f
000002f0: d7ef 5ae2 517e 743f 3acd 1706 0093 703f
00000300: c859 497e 9654 743f c784 b752 0f53 763f
00000310: 9cb4 abe9 9e07 61bf 2b91 2747 bd85 72bf
00000320: 74b0 eb78 cf60 69bf 2a23 1f33 1e25 6bbf
00000330: 3e74 c401 6ac4 65bf 2858 c775 ccaf 763f
00000340: ad84 a7b4 c57a 68bf c9c3 fa7c 45ad 23bf
00000350: 6519 f6b0 008a 803f 203f 36d5 b2be 52bf
00000360: 0497 b83e f213 f03f 9c9a fbe6 8e44 65bf
00000370: 6974 a241 c780 59bf c67d 896c 53eb 7e3f
00000380: dcc0 c501 8b5d 793f 6276 13d0 6c60 4cbf
00000390: 7fbc c1c5 fd7a 7b3f d8c7 71dc 6d36 7b3f
000003a0: 22e8 93ab 1b5d 7d3f b72c 6212 103e 7a3f
000003b0: 2002 b6ae c754 773f 31a5 62d1 c443 7a3f
000003c0: b83d 2257 0bee 7a3f 5c59 5532 3def 763f
000003d0: 28f2 e751 0cbc 713f aa81 484e 0f8f 783f
000003e0: eabb 83b1 8f52 753f f18f b647 0936 753f
000003f0: 92bb cae2 a91f 73bf 7fc4 b211 88de 713f
00000400: c4cf 84a5 b2de 703f b54e ac59 8302 723f
00000410: f542 fb73 b8c9 74bf c186 37f3 bdef 703f
00000420: a024 22c4 895e 70bf 3df1 5ab2 63b8 75bf
00000430: 146b 75b5 24aa 773f e413 8118 c4da 763f
00000440: 1ce6 b723 af20 743f f8a5 b715 0f67 72bf
00000450: f977 3c6b 6c5e 703f 403d 2883 6938 74bf
00000460: f408 1294 1ad9 6abf 9f61 f6ca 7409 66bf
00000470: 151f 826e 0aa4 753f 9211 de9b 0804 6fbf
00000480: d31f 4fa1 6ac7 7b3f f113 5e84 5eb8 673f
00000490: 6d4b 3078 39db 713f ea22 92cc 2035 71bf
000004a0: 8144 c8b9 194c 723f 10e0 19d6 8fa2 713f
000004b0: 1f37 2ae4 8f21 6d3f bf17 bca3 9aa3 6a3f
000004c0: 79c9 7bd9 d588 70bf 62a1 264b c80a 6c3f
000004d0: c3fa ce0d 25ea 72bf 575c c935 7f48 6a3f
000004e0: aff8 52ab 3321 72bf d580 f9b2 42e2 74bf
000004f0: 7bf1 9a31 c954 76bf 74b1 6b13 9575 6ebf
00000500: c39c fb3c 1c67 743f 754b aa63 765d 67bf
00000510: f9d5 3190 39b3 7a3f 33c5 d412 eafa ef3f
00000520: f566 e3cd 1179 783f 25eb b77b 56a4 6bbf
00000530: 9383 cd81 c0d0 5ebf c796 c5d5 d919 72bf
00000540: c74d b03d cb22 66bf 31f6 a00a 079f 743f
00000550: 8cef 5de2 249f 713f 7c3f 7b9e ca3e 713f
00000560: 6be4 3976 ea9f 65bf d2e8 61e0 f443 763f
00000570: 3cb5 9ece 6093 743f 067c 07e7 fdfc 763f
00000580: f186 88c6 053d 6cbf 3223 f05b e75d 743f
00000590: c3bf fb16 c728 6cbf 150a 7abc 879d 793f
000005a0: 67f3 bcde 2ac2 6abf 47fc a723 1479 68bf
000005b0: 5f4a 8e67 f047 68bf a99a 3387 63d4 69bf
000005c0: 20d2 e4eb b95a 67bf 05e1 d121 47f2 753f
000005d0: 20e4 8e63 96fa 793f 6430 c205 0440 65bf
000005e0: b8fe 5fdb 3095 713f fb95 70ae b565 6fbf
000005f0: bc77 ab87 2d77 67bf 882a 6abf fac9 6bbf
00000600: 008c 8986 9758 68bf 375c fb46 6489 773f
00000610: 1ed1 b702 087c 733f 1abd 1f97 977d 7a3f
00000620: 10db f7f1 278a 69bf cbe2 f712 87d4 763f
00000630: c74f 337a f3ed 6dbf 3589 2d0a ae9a 69bf
00000640: 99b3 49da 9b68 5bbf 8fdd 8456 ff17 6bbf
00000650: e870 2a65 5c67 6abf 0f72 f09d 0fab 63bf
00000660: d001 52df bacd 55bf 76a6 9b78 ac18 773f
00000670: 0966 9469 9112 763f 8c37 b379 9626 65bf
00000680: 96cd 9605 aeac 7b3f 2086 be49 967a 64bf
00000690: 4be0 84af 9693 793f c6cc 928b f1ee 713f
000006a0: f308 41d8 f35f 6abf ca45 d0bc 870b 61bf
000006b0: 7556 e910 add0 63bf f038 3de2 ef10 57bf
000006c0: fc5a a8c8 ae11 7b3f b689 3409 86c4 5abf
000006d0: 8448 9528 b923 7e3f 6703 d12d a8aa 62bf
000006e0: 8199 93a0 212d 7f3f 6359 b325 e82a 793f
000006f0: 47e6 30c1 7ced 66bf f6e7 5eed b948 5cbf
00000700: 7b61 6273 a828 61bf ab13 cf97 e0d0 7f3f
00000710: c3a1 cc95 dc08 7e3f b7e6 52f6 f33b 783f
00000720: d0db 1225 33b3 693f 18cd b990 754f 713f
00000730: d093 4214 ca69 793f 775f 29a5 bdb9 723f
00000740: 827d 95ca fa77 6a3f 9af5 db99 1df8 76bf
00000750: 4382 6d57 63b8 673f 8b53 9d11 6fbe 6dbf
00000760: ce1e 1b6c 1e75 723f 50d4 87e1 9ec6 603f
00000770: 0670 c79f 3607 213f 8f79 5f1e 58d0 ef3f
00000780: bb05 a7d2 a02f 843f 03fa c9e8 858b 743f
00000790: 76b1 77e0 88df 833f 774f 2343 85a0 7e3f
000007a0: f52c d24d 3cf1 833f a69e cb19 fb51 853f
000007b0: 12ad da3f c2bd 7e3f b370 d296 f88a 7e3f
000007c0: 5d2b dfaf 92e9 823f 5847 b214 0258 853f
000007d0: 3aae d847 b0f7 783f c0a2 598f 6eb9 7a3f
000007e0: 95a0 214f 4ae0 823f f3d8 b0c9 f6ca 823f
000007f0: 29c4 bea1 4b6c 863f 6c29 b474 8acd 803f
